…
 item_num        | 14733               
 item_query      | 1                   
 l2_bias         | 1                   
 label_max       | 1                   
 label_min       | 0                   
 layer_norm      | 1                   
 loss_f          | cr                  
 loss_sum        | 1                   
 model_path      | ../model/WG4RecAd...
 random_seed     | 2020                
 u_vector_size   | 64                  
 user_num        | 610906              
 w2v_size        | 64                  
========================================
INFO:root:# of params: 47559744
INFO:root:WG4RecAdressa(
  (uid_embeddings): Embedding(610906, 64)
  (iid_embeddings): Embedding(14733, 64)
  (word_embeddings): Embedding(116604, 64)
  (graph_att_q): Linear(in_features=64, out_features=32, bias=True)
  (graph_att_k): Linear(in_features=64, out_features=32, bias=True)
  (word_g_trans): Linear(in_features=128, out_features=64, bias=False)
  (glayer_att_q): Linear(in_features=64, out_features=32, bias=True)
  (glayer_att_k): Linear(in_features=64, out_features=32, bias=True)
  (word_att_q): Linear(in_features=64, out_features=32, bias=True)
  (word_att_k): Linear(in_features=64, out_features=32, bias=True)
  (word2doc): Linear(in_features=64, out_features=64, bias=True)
  (doc_att_query): Linear(in_features=64, out_features=32, bias=True)
  (doc_att_key): Linear(in_features=64, out_features=32, bias=True)
  (rnn): GRU(64, 64, batch_first=True, dropout=0.5)
  (cf_att_query): Linear(in_features=32, out_features=1, bias=False)
  (cf_att_key): Linear(in_features=64, out_features=32, bias=True)
  (act): LeakyReLU(negative_slope=0.01)
  (act_v): LeakyReLU(negative_slope=0.01)
  (ui_layer_norm): LayerNorm((64,), eps=1e-05, elementwise_affine=True)
)
INFO:root:
BaseRunner: 
==========================
 Arguments       | Values 
==========================
 batch_size      | 128   
 check_epoch     | 1     
 check_train     | 0     
 dropout         | 0.5   
 early_stop      | 1     
 epoch           | 100   
 es_long         | 40    
 es_worse        | 10    
 eval_batch_size | 32    
 gc              | 0     
…
