…
 i_vector_size   | 64                  
 item_num        | 588913              
 item_query      | 1                   
 l2_bias         | 0                   
 label_max       | 1                   
 label_min       | 0                   
 layer_norm      | 1                   
 loss_sum        | 1                   
 model_path      | ../model/WG4RecSo...
 random_seed     | 2020                
 u_vector_size   | 64                  
 user_num        | 68897               
 w2v_size        | 64                  
========================================
INFO:root:# of params: 32087424
INFO:root:WG4RecSogou(
  (word_embeddings): Embedding(500000, 64)
  (graph_att_q): Linear(in_features=64, out_features=32, bias=True)
  (graph_att_k): Linear(in_features=64, out_features=32, bias=True)
  (word_g_trans): Linear(in_features=128, out_features=64, bias=False)
  (glayer_att_q): Linear(in_features=64, out_features=32, bias=True)
  (glayer_att_k): Linear(in_features=64, out_features=32, bias=True)
  (word_att_q): Linear(in_features=64, out_features=32, bias=True)
  (word_att_k): Linear(in_features=64, out_features=32, bias=True)
  (word2doc): Linear(in_features=64, out_features=64, bias=True)
  (doc_att_query): Linear(in_features=64, out_features=32, bias=True)
  (doc_att_key): Linear(in_features=64, out_features=32, bias=True)
  (url_att_query): Linear(in_features=64, out_features=32, bias=True)
  (url_att_key): Linear(in_features=64, out_features=32, bias=True)
  (doc_rnn): GRU(64, 64, batch_first=True)
  (url_rnn): GRU(64, 64, batch_first=True)
  (icb_att_query): Linear(in_features=32, out_features=1, bias=False)
  (icb_att_key): Linear(in_features=64, out_features=32, bias=True)
  (ucb_att_query): Linear(in_features=32, out_features=1, bias=False)
  (ucb_att_key): Linear(in_features=64, out_features=32, bias=True)
  (act): LeakyReLU(negative_slope=0.01)
  (act_v): LeakyReLU(negative_slope=0.01)
  (ui_layer_norm): LayerNorm((64,), eps=1e-05, elementwise_affine=True)
)
INFO:root:
BaseRunner: 
========================================
 Arguments       | Values               
========================================
 batch_size      | 128                 
 check_epoch     | 1                   
 check_train     | 0                   
 dropout         | 0.2                 
 early_stop      | 1                   
 epoch           | 100                 
…
